…
      "question": "考慮擲出骰子並採用 Monte Carlo 方法估算條件機率，參考附圖程式碼。事件 A：擲出偶數事件 B：擲出大於 3請問下列何者為條件機率 P(A∣B)的正確值？",
      "options": {
        "A": "A_and_B.sum() / (A.sum() * B.sum())",
        "B": "A_and_B.sum() / (A.sum() + B.sum())",
        "C": "A_and_B.sum() / A.sum()",
        "D": "A_and_B.sum() / B.sum()VGG16 是由牛津大學 Visual Geometry Group(VGG)在 2014 年提出的經典卷積神經網路（Convolutional Neural Network, CNN）架構。該模型以簡潔且規則的層堆疊設計聞名，廣泛應用於影像分類、特徵提取及遷移學習等任務。附圖程式碼載入了預訓練的 VGG16 模型，並輸出其完整層級結構及參數統計摘要（如附表）。請根據此資訊回答 42~45 題。----------------------------------------------------------------Layer (type)               Output Shape         Param #================================================================Conv2d-1         [-1, 64, 150, 150]           1,792ReLU-2         [-1, 64, 150, 150]               0Conv2d-3         [-1, 64, 150, 150]          36,928ReLU-4         [-1, 64, 150, 150]               0MaxPool2d-5           [-1, 64, 75, 75]               0Conv2d-6          [-1, 128, 75, 75]          73,856ReLU-7          [-1, 128, 75, 75]               0Conv2d-8          [-1, 128, 75, 75]         147,584ReLU-9          [-1, 128, 75, 75]               0MaxPool2d-10          [-1, 128, 37, 37]               0Conv2d-11          [-1, 256, 37, 37]         295,168ReLU-12          [-1, 256, 37, 37]               0Conv2d-13          [-1, 256, 37, 37]         590,080ReLU-14          [-1, 256, 37, 37]               0Conv2d-15          [-1, 256, 37, 37]         590,080ReLU-16          [-1, 256, 37, 37]               0MaxPool2d-17          [-1, 256, 18, 18]               0Conv2d-18          [-1, 512, 18, 18]       1,180,160ReLU-19          [-1, 512, 18, 18]               0Conv2d-20          [-1, 512, 18, 18]       2,359,808ReLU-21          [-1, 512, 18, 18]               0Conv2d-22          [-1, 512, 18, 18]       2,359,808ReLU-23          [-1, 512, 18, 18]               0MaxPool2d-24            [-1, 512, 9, 9]               0Conv2d-25            [-1, 512, 9, 9]       2,359,808ReLU-26            [-1, 512, 9, 9]               0Conv2d-27            [-1, 512, 9, 9]       2,359,808ReLU-28            [-1, 512, 9, 9]               0Conv2d-29            [-1, 512, 9, 9]       2,359,808ReLU-30            [-1, 512, 9, 9]               0MaxPool2d-31            [-1, 512, 4, 4]               0AdaptiveAvgPool2d-32            [-1, 512, 7, 7]               0Linear-33                 [-1, 4096]     102,764,544ReLU-34                 [-1, 4096]               0Dropout-35                 [-1, 4096]               0Linear-36                 [-1, 4096]      16,781,312ReLU-37                 [-1, 4096]               0Dropout-38                 [-1, 4096]               0Linear-39                 [-1, 1000]       4,097,000================================================================Total params: 138,357,544Trainable params: 138,357,544Non-trainable params: 0----------------------------------------------------------------Input size (MB): 0.26Forward/backward pass size (MB): 96.93Params size (MB): 527.79Estimated Total Size (MB): 624.98----------------------------------------------------------------"
      },
      "answers": [
…
